model/model.tflite (tflite, 12380 bytes, 8 tensors)

sequential/conv2d/Conv2D/ReadVariableOp f4 [1, 4, 3, 8]
00000000: 779b c0be 1049 363e d468 46be 600d 003e
00000010: b1d1 b13e a713 3fbd f8ab fbbe 139f 323e
00000020: b2c6 a4be 7979 9ebc e4d3 963d ee9c f0bc
00000030: 1367 7f3e d2ad e53d 707d 19be 0faf c93e
00000040: db61 4abd 5f66 2e3d a2f4 fe3d 93a8 ad3c
00000050: 3dd9 983e 23e8 5abe fb31 5f3d f616 7abe
00000060: 36ef d33e 3187 cb3e 4a3b 34bd 69c4 ae3e
00000070: ff33 aabd 0cb0 d03c 8a21 c8bc ae0b 66bb
00000080: bb78 003e 3594 953e 34cf 743d 811a 6b3e
00000090: d9b3 3e3e 63f7 9a3d d363 a7bd 5c9d 2ebd
000000a0: 6050 1abd 7dbe 813e ecd0 fc3b a2ee cb3d
000000b0: 90c4 09be a3a9 58bd 9920 453d d88e 3e3e
000000c0: 18d0 b5bd 9dba 7dbe 161d 4dbd f991 7cbe
000000d0: b9ad 76bd 795d 873d 738f e43e 5514 12be
000000e0: e4e1 a93d 0088 b4bc d4ea 923d 3fe3 85bd
000000f0: e6ab 89be 767c f0bd 145b 5c3e 188c 92be
00000100: 2969 e93d de91 92be b78a 35bd 339a dc3d
00000110: 6288 e63c 8574 833d efbd 5abd 651c 2dbc
00000120: 2ddb 0c3e 9fcf 2bbe 23d3 a1bd 3a32 0dbe
00000130: a5ae f0bd 99b0 213d 3262 d53c f701 56bd
00000140: 6299 823d 9376 95be b269 223e ea6b 4fbe
00000150: 9a00 07be 0515 fdbd 2fee cb3c 95bc c0bd
00000160: fc17 e5bd 453b 123d 051d 9fbc c712 3ebe
00000170: dbdc 3dbd a5f8 743d a27f 4cbc 5b2b 523d
-0.3761861 0.17801309 -0.19375926 0.12505102 0.34730294 -0.0466496 -0.4915464 0.17443494
-0.32182842 -0.019345032 0.07364634 -0.029371705 0.24941663 0.11214794 -0.14989257 0.39391372
-0.04940973 0.042578097 0.12449004 0.021198547 0.2985324 -0.21377616 0.054491024 -0.24422821
0.4139344 0.3975158 -0.044001855 0.34134224 -0.08310699 0.02547457 -0.024430055 -0.0035102176
0.12546055 0.29214635 0.059767917 0.22959329 0.18623294 0.075667165 -0.08173337 -0.04263054
-0.037674308 0.25340644 0.007715335 0.09957625 -0.13453889 -0.052896153 0.04812679 0.18609178
-0.08877581 -0.24778219 -0.050076567 -0.24665059 -0.06022427 0.06609625 0.44640693 -0.14265569
0.08295038 -0.022037506 0.07173696 -0.065374844 -0.2688896 -0.11742489 0.21519119 -0.28622508
0.11397011 -0.28626913 -0.044321742 0.10771599 0.028141204 0.06418709 -0.05340379 -0.010565852
0.13755484 -0.1677842 -0.07901599 -0.13788691 -0.11752061 0.039475057 0.0260478 -0.052247968
0.06376912 -0.29192027 0.15860632 -0.2025601 -0.13183823 -0.12357525 0.024893848 -0.09410969
-0.11186215 0.035701055 -0.019423017 -0.1856185 -0.046353202 0.05980744 -0.012481602 0.05131088

sequential/conv2d/Conv2D_bias f4 [8]
00000000: 56bf b53f 66f9 33bf c9fe b0bf 4e0f a9bf
00000010: f5f8 96bf c1b5 17c0 e6ae 24c0 a21b 83c0
1.4199016 -0.70302427 -1.3827754 -1.3207796 -1.1794726 -2.3704684 -2.573175 -4.097123

sequential/conv2d_1/Conv2D/ReadVariableOp f4 [16, 4, 1, 8]
00000000: fe14 a8bd d890 8f3b 9765 88be de57 413e
00000010: be01 3a3e 2b34 20be d542 8ebb b810 f43d
00000020: b530 183e 998c f3bc 2a9e 6fbe 5cbd 0b3c
00000030: 03a4 d73d f8da 0cbe 113f 56bd bcc5 d0bc
00000040: ba2d dd3e aa6e 3cbe 4451 5bbe 22d1 6b3c
00000050: 8406 7b3d 3787 86be 14cc 203f d450 4e3d
00000060: b2fd bf3d ead7 943d 4466 7ebe 6e54 cc3d
00000070: 94e5 0ebe 0063 553d ac45 b3bd 2ab2 403e
00000080: bb93 a5be 431a b2be c96b 62bd 541c 7cbe
00000090: da5c 0f3e 40af b0be 8fe5 803d a21c 67be
000000a0: 73e3 41bf e87f e53c 4a80 e43d 4673 76be
000000b0: 10c3 863d 8b29 9ebc a10a eb3e 8e78 18bd
000000c0: 68f0 b6be ca4f 05be 109a 68bd 3345 11be
000000d0: 7365 d9bc 56f8 41be c5a3 b0bd 29b2 4fbe
000000e0: 6b42 83be ebd6 6cbe 0215 2a3e 4a58 44be
000000f0: e8aa 0b3e ed25 16be 8a2a 77ba 63da 48be
00000100: 7878 75be 6fe2 f73e f993 ec3c f5ee 823e
00000110: c290 8a3d ef9d aa3e a24f 1c3e ba26 02bd
00000120: 18cf 85be 69dc 87be bc7f 87bd 228b a4be
00000130: 2757 88bd bdb1 9dbd 4d1d 8b3e 123d 563e
00000140: 18f5 b23c 4cc1 81be 0ed7 71bd e1d0 c1be
00000150: dc18 7dbd 6413 c8bd 9955 8f3d 1021 82be
00000160: cf69 ae3d d117 a1be 61e2 a1bd 2b83 2bbe
00000170: 3291 71bb caca f3bd df4f 913d 0e53 d0be
00000180: ad39 923c 87dd 95be 4598 81bd a288 b2be
00000190: fce9 84be 25d4 debd 30ad 943d 6083 98be
000001a0: d11c 8fbd 957d 89bc ecd7 29bd e82a d9bd
000001b0: c29a 2fbe e81f c6bd 0315 1bbd 4197 72be
000001c0: 9843 b3bd b1c7 8b3d 643c d2bc bc23 4d3e
000001d0: 9850 693e 2473 02be be8c a9be f318 4d3e
000001e0: 4915 65be 0b3e f23d db08 933d 6b19 823c
000001f0: 03cb 4e3e 4a68 633e 8783 4a3e d590 c13e
00000200: 62e0 fbbb 8ec1 0bbe 9555 4cbe c62f 88be
00000210: 2002 bc3e bf79 553d 5a6c b33d 6ebe 67bd
00000220: 59b3 323d f32c 80be eb1d 96be 547c 5dbd
00000230: 7fdc 143e 7615 c33c 6106 0d3b 70f6 56bd
00000240: 541e 56be d17b 6ebd de34 79be a8d7 023e
00000250: 8d7e 67be ac1b f9bd 68b3 b6bd 9842 79bd
00000260: fa56 c0bc c681 073d 4942 5abe b78f 363d
00000270: 61ea b8be f804 b73e f51d a8bc 9345 2abd
00000280: b1da 893e 1380 d73e 6f61 9fbe bf0b 45b9
00000290: cd64 1cbe 505f e1bb 5f7c f3bc 7557 b8bc
000002a0: aa40 9a3e ca22 ec3d ae8f 99be 1388 e73d
000002b0: ce5c 6cbe 4e3a 3dbd 2ef2 6eba 3ba4 b0bc
000002c0: 7f2f b1bd b43c f03c b795 a3be fe38 dabd
000002d0: 476a 0c3f 7a92 f13c 883a 09bd 0610 3f3d
000002e0: 9311 2f3d e669 0f3e b3b1 8fbe 5053 2ebb
000002f0: a319 33bd 28b7 0abe ef4d b8bc 949e 6b3d
00000300: d116 c8bd 834e abbe 6a28 ddbd 5d9e f1be
00000310: dc19 aabe 68e8 823c 86c8 f53d d5bd 1d3e
00000320: 08b0 6a3d 76d9 20be 2dd2 dbbd fce4 bfbd
00000330: 2d68 653e 94a1 b4be 0ba1 b33e d577 413a
00000340: f2df 9fbc 2591 20be 46ab 0ebe c125 64bd
00000350: dd6c 4abd 31e5 e4be 7af3 653d 2edc c8bd
00000360: 0a46 d83e 8ded d73c cbe1 fdbd f489 fa3b
00000370: 171b e5bd 0f85 9dbe 513c f3bd 9436 723d
00000380: f898 42bb ef3d 2abe b47f 1abe a764 5abe
00000390: 86ea f6be 091e 12bf b492 443e 1d13 e8be
000003a0: 8ea2 f7bc 0064 333e 4539 9fbe 2d44 f53e
000003b0: 30e9 a73d dd23 4dbf d232 0c3e 3e5d 8ebe
000003c0: 6053 10bf 805f 133e cc30 6fbe 13d5 2e3e
000003d0: 7a43 a43c 436d a7bd c85a e0be f9aa b03e
000003e0: 18bf a6bd 25fc 713d 33cf 00be b81f 59bd
000003f0: 58d5 a43e f1c2 90bd 82ce 5cbe ac28 253e
-0.08207129 0.0043812804 -0.26640007 0.18881175 0.18164727 -0.156449 -0.004341463 0.11917251
0.1486233 -0.029730128 -0.23400179 0.0085290335 0.1052933 -0.13755405 -0.05230624 -0.025484912
0.4319895 -0.1840159 -0.21417719 0.014393123 0.06128551 -0.26275036 0.628114 0.050370052
0.093745604 0.07267745 -0.24843699 0.09977041 -0.13954765 0.052096367 -0.08753523 0.18817964
-0.32339272 -0.3478566 -0.055278573 -0.24620181 0.14000264 -0.34508705 0.06293785 -0.22569516
-0.75737685 0.028015092 0.11157282 -0.24067411 0.06580174 -0.019306919 0.45906547 -0.037224345
-0.3573029 -0.13018718 -0.05678755 -0.14186554 -0.026537633 -0.18942389 -0.086249866 -0.20282806
-0.2563661 -0.2312886 0.16609576 -0.19174305 0.13639414 -0.14662905 -0.0009428641 -0.19614558
-0.23971736 0.48414943 0.028879153 0.25572935 0.067658916 0.3332362 0.15264753 -0.031775214
-0.26134562 -0.26535347 -0.0661616 -0.321374 -0.06657248 -0.076999165 0.27170792 0.20921734
0.021845385 -0.25342786 -0.059042983 -0.37854674 -0.061791286 -0.097693235 0.06998748 -0.2541585
0.08516275 -0.31463483 -0.079045065 -0.16749255 -0.0036860225 -0.11903913 0.07095312 -0.40688366
0.017849768 -0.29270574 -0.06327871 -0.34869868 -0.25959766 -0.10880307 0.072595954 -0.2978773
-0.06987918 -0.016783515 -0.041465685 -0.10603887 -0.17148879 -0.096740544 -0.037861835 -0.23690511
-0.08753127 0.068251975 -0.025663562 0.20033163 0.2278465 -0.12739235 -0.3311519 0.20029049
-0.22371401 0.1182824 0.071794234 0.01588126 0.2019463 0.22207752 0.19776736 0.3780581
-0.0076866606 -0.13648054 -0.19954522 -0.26598948 0.3672037 0.05211806 0.08760901 -0.056578092
0.04362807 -0.25034294 -0.293197 -0.054073647 0.14537238 0.023813944 0.0021518695 -0.052481115
-0.20910007 -0.05822355 -0.24336573 0.12777579 -0.22606869 -0.12163481 -0.08920938 -0.060854524
-0.023478974 0.033082746 -0.21314348 0.04457065 -0.36116317 0.35745978 -0.020522097 -0.041570257
0.2692466 0.420899 -0.31129023 -0.0001879176 -0.15272827 -0.006877817 -0.02972239 -0.02250264
0.3012746 0.11530073 -0.2999243 0.11305251 -0.23082277 -0.04619818 -0.0009115067 -0.021562686
-0.08651637 0.02932582 -0.3195016 -0.10655402 0.54849666 0.02948879 -0.033503085 0.04664614
0.04274137 0.14005241 -0.2806526 -0.002659995 -0.04372562 -0.13546431 -0.0224981 0.05752428
-0.09769977 -0.33458337 -0.10798724 -0.47191134 -0.33222854 0.01597996 0.120011374 0.15404446
0.057296783 -0.15707955 -0.10733447 -0.09369847 0.22403021 -0.35279524 0.35083804 0.0007380222
-0.019515965 -0.15680368 -0.13932523 -0.055700067 -0.049420226 -0.4470611 0.0561404 -0.09807621
0.42240936 0.02635839 -0.12396582 0.00764584 -0.111868076 -0.30765578 -0.11876739 0.05913408
-0.0029693227 -0.16625188 -0.15087777 -0.21327458 -0.48225802 -0.5707708 0.19196588 -0.45327082
-0.03022888 0.17518616 -0.3109838 0.47903576 0.08198774 -0.8013285 0.13691261 -0.27805513
-0.5637722 0.14391899 -0.23358458 0.17073469 0.020051707 -0.08175137 -0.4381926 0.34505442
-0.08141917 0.059078354 -0.1257904 -0.053008765 0.32194018 -0.07068432 -0.21563151 0.16128796

sequential/conv2d_1/Conv2D_bias f4 [16]
00000000: 8d7e 70bf bd5a 093f d813 0ac0 917c 35c0
00000010: 34bf 18be d492 76bf b06b be40 97e4 82bf
00000020: c567 e83e 328a 2abf b030 cd40 5651 6340
00000030: de41 17c0 01e3 a0bf 275f f3be f715 24bd
-0.939431 0.5365408 -2.1574612 -2.835728 -0.14916688 -0.9631779 5.9506454 -1.022601
0.4539167 -0.6661712 6.4121933 3.5518394 -2.3633952 -1.2569276 -0.47533533 -0.04006001

sequential/dense/MatMul/ReadVariableOp/transpose f4 [16, 112]
00000000: a81f 843d da3e 34be ae80 043e 0bc9 e43d
00000010: d1e6 0cbe 6f60 b5bb 61e9 9ebd 844c 343e
00000020: 3ae1 cbbc 7214 813e 5626 56bd 832e cf3c
00000030: a2e7 1a3e fb17 323e 9c8c d33c 5961 13bc
00000040: a5a2 0a3d fb9c 91bb 8d63 203e ad1f 78bd
00000050: 1ef6 e4bd b574 fabd 088d 8fbe 1226 6c3e
00000060: 7e41 27bb 94e5 133e 273d 983d 06ce 7e3d
00000070: 1d36 163e ac9c b33d 9e35 a4bd a001 3aba
00000080: f67c 56be 5388 e1bc f8c2 033e 2e72 5b3d
00000090: caa1 c9bd 2826 9ebe f546 333d ee3d 4e3d
000000a0: b3cd 4abc e865 48bc c08d 613d e7fb f33d
000000b0: 4556 fbbc bb7a 163e 196c 2dbd 02d5 98bc
000000c0: a55a 97be b204 70bd ea7b 793d d4a7 3c3d
000000d0: d3a5 d6bd 322f d8be 54ce f9bd 3740 c1be
000000e0: 0c45 2f3c c1c9 75bd f77a 913c d519 8fbb
000000f0: e32a 533d 9521 a63d 3159 bfbd 76b8 debc
00000100: 2d72 3bbd 5d39 abbd fa6f 6ebc a198 673d
00000110: bbf2 ddbd 4ac6 1abe a877 443e 2239 cb3e
00000120: 479c bebb 862b 683e 44a9 2a3e 43d2 ccba
00000130: c629 54bd 3797 d13d 18b8 b0bd ec6b 37bd
00000140: c1d9 173b 06e6 d2bc 0ada c33c c726 923d
00000150: ac31 8abd 7e5c 50bd 28bf f9bc 58c4 b53d
00000160: ab54 33bc 10a1 9a3e 8d58 0e3e cf80 a33c
00000170: b7f4 863d 7c4b 073e 7acd 87bc 219b 1c3d
00000180: 769e 643d 8884 063d 8167 603d e28f 0e3d
00000190: b3bf af3c bf1d 5b3d c255 173c 3117 f3bd
000001a0: 8304 e0bc 0349 f43d bd46 28bd 439c a0bc
000001b0: 37cd da3c 3d55 263e ba76 78bd cee8 b23d
000001c0: 7ca2 933d 149b 033d 03a8 853d 88ff 5fbd
000001d0: 948d eb3d 7586 dc3c 727b 49be 200b 043e
000001e0: 7c18 a3be 2247 263e c0c0 4ebe cbc8 edbd
000001f0: 774b b23d 0cbe 8abe d4ec 0e3e 84ba 8cbe
00000200: f82e 53be 6785 18be 512c fbba 7a60 f7bb
00000210: 7e6b 02be a4e7 82be e61f e53c e088 73be
00000220: af6c 83be 7b77 bdbd 1882 42be fafb 4dbe
00000230: f57b 1bbe 612e 0f3e 0113 063d 5ad6 00be
00000240: e439 24bd f3e0 313e f1db 49bb dcfe 7bbc
00000250: 7ca4 db3d 68b2 73be 2997 04be 1379 d4bd
00000260: 00c9 88be a8ab f9bd de19 1dbe 064b 14be
00000270: bf14 b9bc 7d5d b9bd 1277 13be c74d 51be
00000280: 4714 eebd 9a1a 3abe 4b3e 463d 0759 0bbe
00000290: 9101 58be 0055 34be ef9f c2bd 6518 7abd
000002a0: 2399 46be dd4a 92bd f72e 38be 019b 623d
000002b0: 1eb7 38be 7de9 0bbe 8b6f 89bd b63f 58be
000002c0: 5de6 c73d b904 363d ad3a c53d ba4a ac3d
000002d0: 99a0 c83d 4635 bcbd 0d1e 0ebc 4867 26bd
000002e0: 2665 b0be 5f13 103e c6da 31be b986 a1bd
000002f0: ff45 80bd 57be b43d dbd8 90bc 0c8c 3cbe
00000300: 1da5 44be 5f9e 1e3e e75c 573d ece8 adbd
00000310: db01 febd 664f 403c 9379 d93d 2129 443d
00000320: 8fa6 d93a 6cef 363e d43b b73c c8f3 3a3b
00000330: 74c1 27be 0a8f 54be 5b79 32bd c6c4 55be
00000340: 0e89 67be d1bd bfba 37db 083e fdbd 51be
00000350: 1d02 493d 39aa a8be f057 e0bc ebe4 94bd
00000360: fe38 40bd 94cd 6fbd 6e88 93be 0474 e83c
00000370: 71cc 7ebe 59ac 73be 8071 00be ef0b 24be
00000380: e2d0 053e be86 733d 17b6 a4bd 6824 ebbb
00000390: 9d2f 4f3f 5003 e2bc 59fd 233d 652e d0bd
000003a0: 57ee 2bbe 63e5 6a3d d652 eebc 1eb1 7cbd
000003b0: f564 09be 825b 34be 154a 2ebd b101 9fbe
000003c0: ede2 893e f7bc 41bd 0039 89be 0a1b d9bd
000003d0: 6ff2 153f 4ce9 153e ea68 71be 6673 f3bd
000003e0: b59d c7be c000 a93d c645 cc3d 38bc 4ebd
000003f0: 36e7 923d 9f0c 5fbe 0543 eebc 6fec dcbd
0.064513505 -0.17602101 0.12939712 0.111711584 -0.13759924 -0.0055351774 -0.07759357 0.17607313
-0.02488767 0.2521091 -0.052282654 0.025290733 0.15127423 0.1739196 0.025823884 -0.008995377
0.033846516 -0.0044437624 0.15662976 -0.060577083 -0.11179756 -0.12229291 -0.28037286 0.23061398
-0.0025521214 0.14443046 0.07433539 0.062208198 0.1466908 0.08770117 -0.08018039 -0.0007095579
-0.20946106 -0.027530825 0.12867343 0.053575687 -0.09845312 -0.30888486 0.04376884 0.05035203
-0.012378144 -0.012231328 0.055066824 0.11913281 -0.030680785 0.14695255 -0.042339418 -0.018656258
-0.29561344 -0.058598228 0.06090919 0.04605849 -0.10480847 -0.42223507 -0.12197557 -0.37744305
0.010697614 -0.06000686 0.01775883 -0.004367093 0.05155457 0.08111874 -0.09343184 -0.027187567
-0.045763183 -0.083605506 -0.0145530645 0.056542043 -0.10837313 -0.15114704 0.1918627 0.39692026
-0.0058169696 0.22672853 0.16666132 -0.0015626628 -0.05179765 0.1023392 -0.08628863 -0.044780657
0.0023170563 -0.02574445 0.02390768 0.071363024 -0.067477554 -0.050869457 -0.030486658 0.0887534
-0.010945479 0.30201006 0.13900967 0.019958882 0.065896444 0.13212389 -0.016577471 0.03823388
0.055815183 0.032841235 0.05478621 0.034805186 0.021453714 0.053495165 0.009236755 -0.11869658
-0.027345901 0.119279884 -0.041083086 -0.019605761 0.026709182 0.16243453 -0.0606601 0.0873581
0.07208726 0.032130316 0.06526186 -0.054687053 0.11501613 0.026919583 -0.19675997 0.12894869
-0.31854618 0.16238073 -0.20190716 -0.11610564 0.087058 -0.2709812 0.1395753 -0.2748605
-0.20623386 -0.14894639 -0.0019162988 -0.0075493427 -0.12736318 -0.25567353 0.027969312 -0.23782682
-0.25668857 -0.09251305 -0.1899494 -0.20115653 -0.15184005 0.13982536 0.032732967 -0.12581769
-0.04009427 0.17370968 -0.0030801261 -0.015380587 0.10724732 -0.23798525 -0.12948288 -0.103746556
-0.2671585 -0.12190944 -0.15341899 -0.14481744 -0.0225929 -0.090510346 -0.1440089 -0.20439826
-0.11624961 -0.1817421 0.04839925 -0.1360818 -0.21094348 -0.1761055 -0.09503161 -0.06105842
-0.19394355 -0.07143185 -0.17986666 0.055323604 -0.18038604 -0.13663287 -0.06710728 -0.21118054
0.09760735 0.044438098 0.09630332 0.084126905 0.097962566 -0.091898486 -0.008674157 -0.04062584
-0.3445217 0.1406989 -0.17368612 -0.078870244 -0.06263351 0.08825367 -0.01768153 -0.18412799
-0.1920361 0.15490101 0.052578833 -0.08491692 -0.12402698 0.01173768 0.106188916 0.047890786
0.0016605424 0.1786477 0.022367395 0.0028526653 -0.1638239 -0.2075769 -0.043572765 -0.20875844
-0.22610876 -0.0014628713 0.13364874 -0.20482631 0.04907428 -0.3294237 -0.027385682 -0.07270225
-0.046929352 -0.058545664 -0.28815025 0.028375633 -0.24882676 -0.23796214 -0.12543297 -0.16020177
0.13067964 0.059454672 -0.080425434 -0.007175971 0.8093203 -0.02758947 0.040036533 -0.10165099
-0.16790138 0.057347666 -0.029092234 -0.06169235 -0.13417418 -0.17613032 -0.04255112 -0.31055978
0.26930943 -0.04729935 -0.268013 -0.106008604 0.5857305 0.14639777 -0.23575178 -0.11887245
-0.38987508 0.08252096 0.09974246 -0.05047247 0.07173006 -0.21782158 -0.029084692 -0.10787284

sequential/dense/MatMul_bias f4 [16]
00000000: 8db4 d3bf 80e7 47be 7968 653e 7d3e d9bd
00000010: fc92 4640 62da 33bf 4f27 0b40 4272 f1be
00000020: a998 773f aa84 37be 02dc 07be 368e 41bf
00000030: 1a3e 27be 5cb4 5c40 2c79 333e 4bb0 013e
-1.6539475 -0.19521904 0.22403134 -0.10607622 3.1027212 -0.702551 2.1742742 -0.47157484
0.96717316 -0.17921701 -0.1326752 -0.7560762 -0.16332284 3.4485083 0.17526692 0.12664907

sequential/dense_1/MatMul/ReadVariableOp/transpose f4 [3, 16]
00000000: 11d6 3d3e 9461 e9be 6707 39be d9b2 6a3e
00000010: 824c 80be c0d0 003e be61 89be 6870 0cbb
00000020: ab45 88be 3db7 c83e 77b6 9d3d eb23 163d
00000030: 5cc8 3e3e b6a2 8ebe 387a cebc f877 74be
00000040: 954c 4e3e 3051 df3e f756 25be a422 9e3e
00000050: c0da 0cbe 38e1 2c3e 9655 93be 3524 ac3d
00000060: 2f7b 97be a659 b73e 23da d2be a124 0a3e
00000070: 2b64 cabe 24ae 77be 6ab4 3a3e 0ba3 17be
00000080: 36de 8a3d 6b3d ff3c f32c 8abd ba72 9e3e
00000090: d94f 29be 78ee f03d 102a bebe 2218 c3bd
000000a0: b360 ccbe c8fe 80be e2e8 24be 143f 12bd
000000b0: 2035 453e e6ff 2abe 0a0e 663e b8f5 7fbd
0.18538691 -0.4558226 -0.1806923 0.22919787 -0.2505837 0.12579632 -0.26832384 -0.0021429304
-0.26615652 0.392023 0.07700818 0.036655348 0.18631119 -0.27858514 -0.025204763 -0.2387389
0.20146401 0.4361663 -0.16146456 0.30885804 -0.13755322 0.16882789 -0.28776234 0.084053434
-0.2958617 0.35810584 -0.4118205 0.13490535 -0.39529547 -0.24187523 0.18232885 -0.1480829
0.067806646 0.031157216 -0.06746855 0.30946904 -0.16534366 0.11764234 -0.37141466 -0.09526087
-0.39917526 -0.25194383 -0.16104463 -0.035704687 0.19258547 -0.1669918 0.22466293 -0.062490195

sequential/dense_1/MatMul_bias f4 [3]
00000000: 27e8 0ebe 3749 7ec0 7e19 1540
-0.13955747 -3.9732187 2.329681
