model/model_quantized.tflite (tflite, 7040 bytes, 8 tensors)

sequential/conv2d/Conv2D/ReadVariableOp f4 [1, 4, 3, 8]
00000000: 779b c0be 1049 363e d468 46be 600d 003e
00000010: b1d1 b13e a713 3fbd f8ab fbbe 139f 323e
00000020: b2c6 a4be 7979 9ebc e4d3 963d ee9c f0bc
00000030: 1367 7f3e d2ad e53d 707d 19be 0faf c93e
00000040: db61 4abd 5f66 2e3d a2f4 fe3d 93a8 ad3c
00000050: 3dd9 983e 23e8 5abe fb31 5f3d f616 7abe
00000060: 36ef d33e 3187 cb3e 4a3b 34bd 69c4 ae3e
00000070: ff33 aabd 0cb0 d03c 8a21 c8bc ae0b 66bb
00000080: bb78 003e 3594 953e 34cf 743d 811a 6b3e
00000090: d9b3 3e3e 63f7 9a3d d363 a7bd 5c9d 2ebd
000000a0: 6050 1abd 7dbe 813e ecd0 fc3b a2ee cb3d
000000b0: 90c4 09be a3a9 58bd 9920 453d d88e 3e3e
000000c0: 18d0 b5bd 9dba 7dbe 161d 4dbd f991 7cbe
000000d0: b9ad 76bd 795d 873d 738f e43e 5514 12be
000000e0: e4e1 a93d 0088 b4bc d4ea 923d 3fe3 85bd
000000f0: e6ab 89be 767c f0bd 145b 5c3e 188c 92be
00000100: 2969 e93d de91 92be b78a 35bd 339a dc3d
00000110: 6288 e63c 8574 833d efbd 5abd 651c 2dbc
00000120: 2ddb 0c3e 9fcf 2bbe 23d3 a1bd 3a32 0dbe
00000130: a5ae f0bd 99b0 213d 3262 d53c f701 56bd
00000140: 6299 823d 9376 95be b269 223e ea6b 4fbe
00000150: 9a00 07be 0515 fdbd 2fee cb3c 95bc c0bd
00000160: fc17 e5bd 453b 123d 051d 9fbc c712 3ebe
00000170: dbdc 3dbd a5f8 743d a27f 4cbc 5b2b 523d
-0.3761861 0.17801309 -0.19375926 0.12505102 0.34730294 -0.0466496 -0.4915464 0.17443494
-0.32182842 -0.019345032 0.07364634 -0.029371705 0.24941663 0.11214794 -0.14989257 0.39391372
-0.04940973 0.042578097 0.12449004 0.021198547 0.2985324 -0.21377616 0.054491024 -0.24422821
0.4139344 0.3975158 -0.044001855 0.34134224 -0.08310699 0.02547457 -0.024430055 -0.0035102176
0.12546055 0.29214635 0.059767917 0.22959329 0.18623294 0.075667165 -0.08173337 -0.04263054
-0.037674308 0.25340644 0.007715335 0.09957625 -0.13453889 -0.052896153 0.04812679 0.18609178
-0.08877581 -0.24778219 -0.050076567 -0.24665059 -0.06022427 0.06609625 0.44640693 -0.14265569
0.08295038 -0.022037506 0.07173696 -0.065374844 -0.2688896 -0.11742489 0.21519119 -0.28622508
0.11397011 -0.28626913 -0.044321742 0.10771599 0.028141204 0.06418709 -0.05340379 -0.010565852
0.13755484 -0.1677842 -0.07901599 -0.13788691 -0.11752061 0.039475057 0.0260478 -0.052247968
0.06376912 -0.29192027 0.15860632 -0.2025601 -0.13183823 -0.12357525 0.024893848 -0.09410969
-0.11186215 0.035701055 -0.019423017 -0.1856185 -0.046353202 0.05980744 -0.012481602 0.05131088

sequential/conv2d/Conv2D_bias f4 [8]
00000000: 56bf b53f 66f9 33bf c9fe b0bf 4e0f a9bf
00000010: f5f8 96bf c1b5 17c0 e6ae 24c0 a21b 83c0
1.4199016 -0.70302427 -1.3827754 -1.3207796 -1.1794726 -2.3704684 -2.573175 -4.097123

sequential/conv2d_1/Conv2D/ReadVariableOp f4 [16, 4, 1, 8]
00000000: fe14 a8bd d890 8f3b 9765 88be de57 413e
00000010: be01 3a3e 2b34 20be d542 8ebb b810 f43d
00000020: b530 183e 998c f3bc 2a9e 6fbe 5cbd 0b3c
00000030: 03a4 d73d f8da 0cbe 113f 56bd bcc5 d0bc
00000040: ba2d dd3e aa6e 3cbe 4451 5bbe 22d1 6b3c
00000050: 8406 7b3d 3787 86be 14cc 203f d450 4e3d
00000060: b2fd bf3d ead7 943d 4466 7ebe 6e54 cc3d
00000070: 94e5 0ebe 0063 553d ac45 b3bd 2ab2 403e
00000080: bb93 a5be 431a b2be c96b 62bd 541c 7cbe
00000090: da5c 0f3e 40af b0be 8fe5 803d a21c 67be
000000a0: 73e3 41bf e87f e53c 4a80 e43d 4673 76be
000000b0: 10c3 863d 8b29 9ebc a10a eb3e 8e78 18bd
000000c0: 68f0 b6be ca4f 05be 109a 68bd 3345 11be
000000d0: 7365 d9bc 56f8 41be c5a3 b0bd 29b2 4fbe
000000e0: 6b42 83be ebd6 6cbe 0215 2a3e 4a58 44be
000000f0: e8aa 0b3e ed25 16be 8a2a 77ba 63da 48be
00000100: 7878 75be 6fe2 f73e f993 ec3c f5ee 823e
00000110: c290 8a3d ef9d aa3e a24f 1c3e ba26 02bd
00000120: 18cf 85be 69dc 87be bc7f 87bd 228b a4be
00000130: 2757 88bd bdb1 9dbd 4d1d 8b3e 123d 563e
00000140: 18f5 b23c 4cc1 81be 0ed7 71bd e1d0 c1be
00000150: dc18 7dbd 6413 c8bd 9955 8f3d 1021 82be
00000160: cf69 ae3d d117 a1be 61e2 a1bd 2b83 2bbe
00000170: 3291 71bb caca f3bd df4f 913d 0e53 d0be
00000180: ad39 923c 87dd 95be 4598 81bd a288 b2be
00000190: fce9 84be 25d4 debd 30ad 943d 6083 98be
000001a0: d11c 8fbd 957d 89bc ecd7 29bd e82a d9bd
000001b0: c29a 2fbe e81f c6bd 0315 1bbd 4197 72be
000001c0: 9843 b3bd b1c7 8b3d 643c d2bc bc23 4d3e
000001d0: 9850 693e 2473 02be be8c a9be f318 4d3e
000001e0: 4915 65be 0b3e f23d db08 933d 6b19 823c
000001f0: 03cb 4e3e 4a68 633e 8783 4a3e d590 c13e
00000200: 62e0 fbbb 8ec1 0bbe 9555 4cbe c62f 88be
00000210: 2002 bc3e bf79 553d 5a6c b33d 6ebe 67bd
00000220: 59b3 323d f32c 80be eb1d 96be 547c 5dbd
00000230: 7fdc 143e 7615 c33c 6106 0d3b 70f6 56bd
00000240: 541e 56be d17b 6ebd de34 79be a8d7 023e
00000250: 8d7e 67be ac1b f9bd 68b3 b6bd 9842 79bd
00000260: fa56 c0bc c681 073d 4942 5abe b78f 363d
00000270: 61ea b8be f804 b73e f51d a8bc 9345 2abd
00000280: b1da 893e 1380 d73e 6f61 9fbe bf0b 45b9
00000290: cd64 1cbe 505f e1bb 5f7c f3bc 7557 b8bc
000002a0: aa40 9a3e ca22 ec3d ae8f 99be 1388 e73d
000002b0: ce5c 6cbe 4e3a 3dbd 2ef2 6eba 3ba4 b0bc
000002c0: 7f2f b1bd b43c f03c b795 a3be fe38 dabd
000002d0: 476a 0c3f 7a92 f13c 883a 09bd 0610 3f3d
000002e0: 9311 2f3d e669 0f3e b3b1 8fbe 5053 2ebb
000002f0: a319 33bd 28b7 0abe ef4d b8bc 949e 6b3d
00000300: d116 c8bd 834e abbe 6a28 ddbd 5d9e f1be
00000310: dc19 aabe 68e8 823c 86c8 f53d d5bd 1d3e
00000320: 08b0 6a3d 76d9 20be 2dd2 dbbd fce4 bfbd
00000330: 2d68 653e 94a1 b4be 0ba1 b33e d577 413a
00000340: f2df 9fbc 2591 20be 46ab 0ebe c125 64bd
00000350: dd6c 4abd 31e5 e4be 7af3 653d 2edc c8bd
00000360: 0a46 d83e 8ded d73c cbe1 fdbd f489 fa3b
00000370: 171b e5bd 0f85 9dbe 513c f3bd 9436 723d
00000380: f898 42bb ef3d 2abe b47f 1abe a764 5abe
00000390: 86ea f6be 091e 12bf b492 443e 1d13 e8be
000003a0: 8ea2 f7bc 0064 333e 4539 9fbe 2d44 f53e
000003b0: 30e9 a73d dd23 4dbf d232 0c3e 3e5d 8ebe
000003c0: 6053 10bf 805f 133e cc30 6fbe 13d5 2e3e
000003d0: 7a43 a43c 436d a7bd c85a e0be f9aa b03e
000003e0: 18bf a6bd 25fc 713d 33cf 00be b81f 59bd
000003f0: 58d5 a43e f1c2 90bd 82ce 5cbe ac28 253e
-0.08207129 0.0043812804 -0.26640007 0.18881175 0.18164727 -0.156449 -0.004341463 0.11917251
0.1486233 -0.029730128 -0.23400179 0.0085290335 0.1052933 -0.13755405 -0.05230624 -0.025484912
0.4319895 -0.1840159 -0.21417719 0.014393123 0.06128551 -0.26275036 0.628114 0.050370052
0.093745604 0.07267745 -0.24843699 0.09977041 -0.13954765 0.052096367 -0.08753523 0.18817964
-0.32339272 -0.3478566 -0.055278573 -0.24620181 0.14000264 -0.34508705 0.06293785 -0.22569516
-0.75737685 0.028015092 0.11157282 -0.24067411 0.06580174 -0.019306919 0.45906547 -0.037224345
-0.3573029 -0.13018718 -0.05678755 -0.14186554 -0.026537633 -0.18942389 -0.086249866 -0.20282806
-0.2563661 -0.2312886 0.16609576 -0.19174305 0.13639414 -0.14662905 -0.0009428641 -0.19614558
-0.23971736 0.48414943 0.028879153 0.25572935 0.067658916 0.3332362 0.15264753 -0.031775214
-0.26134562 -0.26535347 -0.0661616 -0.321374 -0.06657248 -0.076999165 0.27170792 0.20921734
0.021845385 -0.25342786 -0.059042983 -0.37854674 -0.061791286 -0.097693235 0.06998748 -0.2541585
0.08516275 -0.31463483 -0.079045065 -0.16749255 -0.0036860225 -0.11903913 0.07095312 -0.40688366
0.017849768 -0.29270574 -0.06327871 -0.34869868 -0.25959766 -0.10880307 0.072595954 -0.2978773
-0.06987918 -0.016783515 -0.041465685 -0.10603887 -0.17148879 -0.096740544 -0.037861835 -0.23690511
-0.08753127 0.068251975 -0.025663562 0.20033163 0.2278465 -0.12739235 -0.3311519 0.20029049
-0.22371401 0.1182824 0.071794234 0.01588126 0.2019463 0.22207752 0.19776736 0.3780581
-0.0076866606 -0.13648054 -0.19954522 -0.26598948 0.3672037 0.05211806 0.08760901 -0.056578092
0.04362807 -0.25034294 -0.293197 -0.054073647 0.14537238 0.023813944 0.0021518695 -0.052481115
-0.20910007 -0.05822355 -0.24336573 0.12777579 -0.22606869 -0.12163481 -0.08920938 -0.060854524
-0.023478974 0.033082746 -0.21314348 0.04457065 -0.36116317 0.35745978 -0.020522097 -0.041570257
0.2692466 0.420899 -0.31129023 -0.0001879176 -0.15272827 -0.006877817 -0.02972239 -0.02250264
0.3012746 0.11530073 -0.2999243 0.11305251 -0.23082277 -0.04619818 -0.0009115067 -0.021562686
-0.08651637 0.02932582 -0.3195016 -0.10655402 0.54849666 0.02948879 -0.033503085 0.04664614
0.04274137 0.14005241 -0.2806526 -0.002659995 -0.04372562 -0.13546431 -0.0224981 0.05752428
-0.09769977 -0.33458337 -0.10798724 -0.47191134 -0.33222854 0.01597996 0.120011374 0.15404446
0.057296783 -0.15707955 -0.10733447 -0.09369847 0.22403021 -0.35279524 0.35083804 0.0007380222
-0.019515965 -0.15680368 -0.13932523 -0.055700067 -0.049420226 -0.4470611 0.0561404 -0.09807621
0.42240936 0.02635839 -0.12396582 0.00764584 -0.111868076 -0.30765578 -0.11876739 0.05913408
-0.0029693227 -0.16625188 -0.15087777 -0.21327458 -0.48225802 -0.5707708 0.19196588 -0.45327082
-0.03022888 0.17518616 -0.3109838 0.47903576 0.08198774 -0.8013285 0.13691261 -0.27805513
-0.5637722 0.14391899 -0.23358458 0.17073469 0.020051707 -0.08175137 -0.4381926 0.34505442
-0.08141917 0.059078354 -0.1257904 -0.053008765 0.32194018 -0.07068432 -0.21563151 0.16128796

sequential/conv2d_1/Conv2D_bias f4 [16]
00000000: 8d7e 70bf bd5a 093f d813 0ac0 917c 35c0
00000010: 34bf 18be d492 76bf b06b be40 97e4 82bf
00000020: c567 e83e 328a 2abf b030 cd40 5651 6340
00000030: de41 17c0 01e3 a0bf 275f f3be f715 24bd
-0.939431 0.5365408 -2.1574612 -2.835728 -0.14916688 -0.9631779 5.9506454 -1.022601
0.4539167 -0.6661712 6.4121933 3.5518394 -2.3633952 -1.2569276 -0.47533533 -0.04006001

sequential/dense/MatMul/ReadVariableOp/transpose i1 [16, 112] scale=0.010959037 zero_point=0
00000000: 06f0 0c0a f3ff f910 fe17 fb02 0e10 02ff
00000010: 0300 0efa f6f5 e615 000d 0706 0d08 f900
00000020: edfd 0c05 f7e4 0405 ffff 050b fd0d fcfe
00000030: e5fb 0604 f6d9 f5de 01fb 0200 0507 f7fe
00000040: fcf8 ff05 f6f2 1224 ff15 0f00 fb09 f8fc
00000050: 00fe 0207 fafb fd08 ff1c 0d02 060c fe03
00000060: 0503 0503 0205 01f5 fe0b fcfe 020f fa08
00000070: 0703 06fb 0a02 ee0c e30f eef5 08e7 0de7
00000080: edf2 00ff f4e9 03ea e9f8 efee f20d 03f5
00000090: fc10 00ff 0aea f4f7 e8f5 f2f3 fef8 f3ed
000000a0: f5ef 04f4 edf0 f7fa eef9 f005 f0f4 faed
000000b0: 0904 0908 09f8 fffc e10d f0f9 fa08 feef
000000c0: ee0e 05f8 f501 0a04 0010 0200 f1ed fced
000000d0: eb00 0ced 04e2 fef9 fcfb e603 e9ea f5f1
000000e0: 0c05 f9ff 4afd 04f7 f105 fdfa f4f0 fce4
000000f0: 19fc e8f6 350d eaf5 dc08 09fb 07ec fdf6
0.06575422 -0.17534459 0.13150844 0.10959037 -0.14246747 -0.010959037 -0.07671326 0.17534459
-0.021918073 0.25205785 -0.054795183 0.021918073 0.15342651 0.17534459 0.021918073 -0.010959037
0.03287711 0.0 0.15342651 -0.06575422 -0.10959037 -0.1205494 -0.28493494 0.23013976
0.0 0.14246747 0.07671326 0.06575422 0.14246747 0.08767229 -0.07671326 0.0
-0.2082217 -0.03287711 0.13150844 0.054795183 -0.09863133 -0.30685303 0.043836147 0.054795183
-0.010959037 -0.010959037 0.054795183 0.1205494 -0.03287711 0.14246747 -0.043836147 -0.021918073
-0.295894 -0.054795183 0.06575422 0.043836147 -0.10959037 -0.42740244 -0.1205494 -0.37260723
0.010959037 -0.054795183 0.021918073 0.0 0.054795183 0.07671326 -0.09863133 -0.021918073
-0.043836147 -0.08767229 -0.010959037 0.054795183 -0.10959037 -0.15342651 0.19726266 0.39452532
-0.010959037 0.23013976 0.16438556 0.0 -0.054795183 0.09863133 -0.08767229 -0.043836147
0.0 -0.021918073 0.021918073 0.07671326 -0.06575422 -0.054795183 -0.03287711 0.08767229
-0.010959037 0.30685303 0.14246747 0.021918073 0.06575422 0.13150844 -0.021918073 0.03287711
0.054795183 0.03287711 0.054795183 0.03287711 0.021918073 0.054795183 0.010959037 -0.1205494
-0.021918073 0.1205494 -0.043836147 -0.021918073 0.021918073 0.16438556 -0.06575422 0.08767229
0.07671326 0.03287711 0.06575422 -0.054795183 0.10959037 0.021918073 -0.19726266 0.13150844
-0.31781206 0.16438556 -0.19726266 -0.1205494 0.08767229 -0.2739759 0.14246747 -0.2739759
-0.2082217 -0.15342651 0.0 -0.010959037 -0.13150844 -0.25205785 0.03287711 -0.2410988
-0.25205785 -0.08767229 -0.18630362 -0.19726266 -0.15342651 0.14246747 0.03287711 -0.1205494
-0.043836147 0.17534459 0.0 -0.010959037 0.10959037 -0.2410988 -0.13150844 -0.09863133
-0.26301688 -0.1205494 -0.15342651 -0.14246747 -0.021918073 -0.08767229 -0.14246747 -0.2082217
-0.1205494 -0.18630362 0.043836147 -0.13150844 -0.2082217 -0.17534459 -0.09863133 -0.06575422
-0.19726266 -0.07671326 -0.17534459 0.054795183 -0.17534459 -0.13150844 -0.06575422 -0.2082217
0.09863133 0.043836147 0.09863133 0.08767229 0.09863133 -0.08767229 -0.010959037 -0.043836147
-0.33973014 0.14246747 -0.17534459 -0.07671326 -0.06575422 0.08767229 -0.021918073 -0.18630362
-0.19726266 0.15342651 0.054795183 -0.08767229 -0.1205494 0.010959037 0.10959037 0.043836147
0.0 0.17534459 0.021918073 0.0 -0.16438556 -0.2082217 -0.043836147 -0.2082217
-0.23013976 0.0 0.13150844 -0.2082217 0.043836147 -0.3287711 -0.021918073 -0.07671326
-0.043836147 -0.054795183 -0.28493494 0.03287711 -0.25205785 -0.2410988 -0.1205494 -0.16438556
0.13150844 0.054795183 -0.07671326 -0.010959037 0.8109687 -0.03287711 0.043836147 -0.09863133
-0.16438556 0.054795183 -0.03287711 -0.06575422 -0.13150844 -0.17534459 -0.043836147 -0.30685303
0.2739759 -0.043836147 -0.26301688 -0.10959037 0.58082896 0.14246747 -0.2410988 -0.1205494
-0.39452532 0.08767229 0.09863133 -0.054795183 0.07671326 -0.21918073 -0.03287711 -0.10959037

sequential/dense/MatMul_bias f4 [16]
00000000: 8db4 d3bf 80e7 47be 7968 653e 7d3e d9bd
00000010: fc92 4640 62da 33bf 4f27 0b40 4272 f1be
00000020: a998 773f aa84 37be 02dc 07be 368e 41bf
00000030: 1a3e 27be 5cb4 5c40 2c79 333e 4bb0 013e
-1.6539475 -0.19521904 0.22403134 -0.10607622 3.1027212 -0.702551 2.1742742 -0.47157484
0.96717316 -0.17921701 -0.1326752 -0.7560762 -0.16332284 3.4485083 0.17526692 0.12664907

sequential/dense_1/MatMul/ReadVariableOp/transpose f4 [3, 16]
00000000: 11d6 3d3e 9461 e9be 6707 39be d9b2 6a3e
00000010: 824c 80be c0d0 003e be61 89be 6870 0cbb
00000020: ab45 88be 3db7 c83e 77b6 9d3d eb23 163d
00000030: 5cc8 3e3e b6a2 8ebe 387a cebc f877 74be
00000040: 954c 4e3e 3051 df3e f756 25be a422 9e3e
00000050: c0da 0cbe 38e1 2c3e 9655 93be 3524 ac3d
00000060: 2f7b 97be a659 b73e 23da d2be a124 0a3e
00000070: 2b64 cabe 24ae 77be 6ab4 3a3e 0ba3 17be
00000080: 36de 8a3d 6b3d ff3c f32c 8abd ba72 9e3e
00000090: d94f 29be 78ee f03d 102a bebe 2218 c3bd
000000a0: b360 ccbe c8fe 80be e2e8 24be 143f 12bd
000000b0: 2035 453e e6ff 2abe 0a0e 663e b8f5 7fbd
0.18538691 -0.4558226 -0.1806923 0.22919787 -0.2505837 0.12579632 -0.26832384 -0.0021429304
-0.26615652 0.392023 0.07700818 0.036655348 0.18631119 -0.27858514 -0.025204763 -0.2387389
0.20146401 0.4361663 -0.16146456 0.30885804 -0.13755322 0.16882789 -0.28776234 0.084053434
-0.2958617 0.35810584 -0.4118205 0.13490535 -0.39529547 -0.24187523 0.18232885 -0.1480829
0.067806646 0.031157216 -0.06746855 0.30946904 -0.16534366 0.11764234 -0.37141466 -0.09526087
-0.39917526 -0.25194383 -0.16104463 -0.035704687 0.19258547 -0.1669918 0.22466293 -0.062490195

sequential/dense_1/MatMul_bias f4 [3]
00000000: 27e8 0ebe 3749 7ec0 7e19 1540
-0.13955747 -3.9732187 2.329681
